Fraud_Detection/best_model.pth (torch, 93662 bytes, 13 tensors)

network.0.weight f4 [128, 100]
-0.1511434 0.00076452724 0.021323174 -0.07750906 0.06056421 0.03596012 -0.06399452 0.008674988
0.07800759 -0.13198146 0.014975594 0.007289421 0.06753139 0.0006877354 -0.08628604 -0.048404176
-0.09407604 -0.031533573 0.014578124 -0.056495816 0.008870679 0.100776464 -0.052683257 -0.03491148
-0.073609024 -0.07909783 0.04729011 -0.025708793 -0.104286194 0.061444826 0.056468833 0.050340887
-0.014971779 -0.041101575 -0.0337193 -0.058694106 0.02605125 -0.03530825 -0.022145584 -0.12251388
0.012330077 -0.048787955 -0.037375234 0.02517462 0.020677004 -0.11506465 -0.07339863 0.091103695
0.10301497 -0.07548755 0.0138787795 0.026453104 -0.04701868 -0.057974145 -0.105837055 -0.03137089
-0.092395656 0.089137085 0.016193254 0.013979647 -0.02755979 0.097420685 -0.031077314 0.028095901
0.018466314 -0.05377249 -0.13896318 -0.045929234 0.05426701 -0.054401506 -0.032376375 -0.04575221
0.08916384 -0.06979635 0.010329324 0.040233117 -0.08281502 -0.012707229 0.07093472 -0.048332687
-0.10054696 -0.046024635 -0.0605071 0.014153739 0.08738136 -0.06304414 0.05161191 -0.04064001
-0.060523976 -0.015472025 0.110753976 -0.12529467 0.108850196 0.05828135 0.015777549 0.016150905
-0.047789276 -0.038581397 0.021732816 -0.007104681 -0.40322435 -0.2888786 -0.054988906 0.041044205
-0.2931744 -0.11398548 0.03855447 0.15710185 0.001707065 -0.3321276 0.04605051 -0.29997593
-0.08851474 0.17392181 0.037324682 0.6387059 0.09121836 0.1293991 0.072765544 -0.15025242
-0.21774057 0.2962597 -0.105246946 0.120273516 -0.64221215 0.32583305 -0.15002225 0.14619981
0.12810284 0.018428339 -0.20942657 -0.09195561 -0.064991295 -0.33009344 -0.12274048 -0.07050442
-0.038685612 -0.056929246 -0.119609304 -0.2528028 0.0041705263 -0.054656483 0.0018886118 -0.14293195
0.20180246 -0.011446652 0.012146021 0.28826135 0.20924987 0.20751902 0.18987708 0.043500613
-0.082899466 0.0051376116 0.3237474 0.27643284 0.016989032 0.05501025 -0.1758337 0.32773843
0.22745402 0.026367525 0.03650276 -0.04347365 -0.14733122 -0.087854214 -0.3652174 -0.15055417
0.27820313 0.09381543 0.009124624 0.024702147 -0.046972554 0.116195075 -0.21787064 -0.012363347
-0.07152756 -0.0024140996 0.08900079 -0.07118672 -0.017363612 0.008106046 -0.27277717 0.007898007
0.13993791 0.040792163 -0.00014330348 0.10112468 0.021440007 0.30439472 0.13343766 -0.09250655
0.11929851 0.053714555 0.07063634 -0.094971165 -0.32106712 0.19571744 0.031835515 0.049833752
-0.29557762 -0.16002615 -0.010877796 0.083421156 -0.34046042 -0.009867403 -0.08916259 0.6536528
0.040123824 -0.66010904 -0.0959106 -0.097970605 -0.13039096 0.02110818 0.008490954 0.7745407
0.029192312 0.2143476 0.014995936 -0.15080404 -0.27753586 0.25726622 -0.44101274 0.12614767
-0.5530648 0.05658683 0.14213146 0.0060758595 0.0594034 -0.071972705 -0.018543296 -0.014794754
0.026299981 0.0033313795 -0.060257368 -0.006395157 -0.14200275 -0.006306609 -0.3071351 -0.20615539
0.046033274 -0.04180711 -0.026567573 0.07512404 0.30436745 0.062016886 0.027963823 0.13582772
0.24001785 0.27617887 0.26226476 -0.24362275 -0.1356398 -0.2152874 0.18078046 0.07413237
00000000: 56c5 1abe 8e6a 483a f0ad ae3c 12bd 9ebd
00000010: 2d12 783d eb4a 133d 8f0f 83bd 8921 0e3c
00000020: 71c2 9f3d 2626 07be 325c 753c 18dc ee3b
00000030: e64d 8a3d 2449 343a bcb6 b0bd 7543 46bd
00000040: f0aa c0bd 5929 01bd 15d9 6e3c 2868 67bd
00000050: 5356 113c e463 ce3d 66ca 57bd 57ff 0ebd
00000060: 54c0 96bd 0bfe a1bd 46b3 413d 3f9b d2bc
00000070: 0094 d5bd 92ad 7b3d dd4b 673d 3f32 4e3d
00000080: 314c 75bc 205a 28bd 401d 0abd 3b69 70bd
00000090: 6e69 d53c 629f 10bd a86a b5bc 8fe8 fabd
000000a0: 1704 4a3c e1d5 47bd c616 19bd 013b ce3c
000000b0: d262 a93c 04a7 ebbd 0552 96bd 9394 ba3d
000000c0: 83f9 d23d 3799 9abd d263 633c 2eb4 d83c
000000d0: a996 40bd 4c76 6dbd 19c1 d8bd c37e 00bd
000000e0: ef39 bdbd 818d b63d b7a7 843c e40a 653c
000000f0: 12c5 e1bc 7f84 c73d da95 febc 6029 e63c
00000100: ab46 973c 8b40 5cbd 5d4c 0ebe 4b20 3cbd
00000110: 1647 5e3d 1dd4 5ebd 179d 04bd ab66 3bbd
00000120: 889b b63d 64f1 8ebd 533c 293c 7bcb 243d
00000130: ec9a a9bd fb31 50bc 3946 913d 7ff8 45bd
00000140: 91eb cdbd 5484 3cbd 4bd6 77bd 16e5 673c
00000150: 00f5 b23d 491d 81bd 0367 533d 2476 26bd
00000160: fde7 77bd 607e 7dbc fbd2 e23d 3f4d 00be
00000170: daec de3d 6db8 6e3d eb3f 813c e74e 843c
00000180: b0be 43bd 8707 1ebd 0509 b23c 62ce e8bb
00000190: 6c73 cebe e5e7 93be 0c3c 61bd f81d 283d
000001a0: f41a 96be 3871 e9bd 4beb 1d3d 4fdf 203e
000001b0: 99bf df3a a10c aabe 769f 3c3d 7296 99be
000001c0: 3747 b5bd 8f18 323e c4e1 183d 3b82 233f
000001d0: b1d0 ba3d 3381 043e 1a06 953d c5db 19be
000001e0: 62f7 5ebe 5aaf 973e b68b d7bd f651 f63d
000001f0: 0468 24bf 97d3 a63e 6f9f 19be 67b5 153e
00000200: 642d 033e 07f7 963c eb73 56be 3953 bcbd
00000210: 281a 85bd 0202 a9be 5c5f fbbd 9f64 90bd
00000220: ce74 1ebd a42e 69bd b9f5 f4bd 5e6f 81be
00000230: e9a8 883b 7adf 5fbd 4c8b f73a c15c 12be
00000240: 4ea5 4e3e bd8a 3bbc 1b00 473c fe96 933e
00000250: 9945 563e de7f 543e 236f 423e b32d 323d
00000260: 32c7 a9bd 6959 a83b 38c2 a53e 9b88 8d3e
00000270: 952c 8b3c 6e52 613d c00d 34be 55cd a73e
00000280: b5e9 683e b500 d83c eb83 153d 6d11 32bd
00000290: ffdd 16be e9ec b3bd c6fd babe df2a 1abe
000002a0: a470 8e3e 4e22 c03d 727f 153c 285c ca3c
000002b0: 4b66 40bd aff7 ed3d 7b19 5fbe a38f 4abc
000002c0: 0b7d 92bd df35 1ebb 0c46 b63d 58ca 91bd
000002d0: 223e 8ebc 39cf 043c 73a9 8bbe a466 013c
000002e0: e24b 0f3e af15 273d bc43 16b9 751a cf3d
000002f0: f4a2 af3c a0d9 9b3e e2a3 083e 1374 bdbd
00000300: c752 f43d cb03 5c3d c9a9 903d 3e80 c2bd
00000310: e962 a4be 276a 483e f565 023d 7a1e 4c3d
00000320: f355 97be e5dd 23be c938 32bc b6d8 aa3d
00000330: d450 aebe e3aa 21bc e09a b6bd ca55 273f
00000340: e158 243d e8fc 28bf c76c c4bd d0a4 c8bd
00000350: 3585 05be 10eb ac3c a41d 0b3c 4d48 463f
00000360: b724 ef3c f07d 5b3e 84b1 753c 606c 1abe
00000370: 2e19 8ebe 66b8 833e 6ccc e1be db2c 013e
00000380: a895 0dbf 98c7 673d e98a 113e 0118 c73b
00000390: fb50 733d 6d66 93bd 1ce8 97bc b265 72bc
000003a0: 0f73 d73c 4653 5a3b 6ed0 76bd 778e d1bb
000003b0: 2b69 11be aca7 cebb d040 9dbe 661a 53be
000003c0: 638d 3c3d ef3d 2bbd 3da4 d9bc a2da 993d
000003d0: 0dd6 9b3e 6b05 7e3d 6314 e53c 6c16 0b3e
000003e0: 3dc7 753e 5167 8d3e 9147 863e 3e78 79be
000003f0: 29e5 0abe 4d74 5cbe 831e 393e b6d2 973d

network.0.bias f4 [128]
0.04023862 0.06600253 -0.033228207 -0.08659957 -0.119841285 -0.016354494 -0.052264877 -0.04431958
-0.0029764494 -0.019838111 -0.006205523 0.02332289 -0.070100494 0.07159452 0.008043099 -0.042041603
-0.043066666 0.08086505 -0.0032765635 -0.17900461 -0.027852591 0.010787652 0.05274818 -0.12002468
-0.08343621 -0.026542613 -0.0031624655 -0.01013411 -0.121691525 -0.11302432 0.0419031 0.037396852
0.06692144 0.018904 -0.06969508 -0.0014496362 -0.01920345 0.052536815 -0.0074328957 -0.05925234
-0.0786311 0.12405862 0.080332465 0.022039447 0.062072344 0.1523804 -0.07835018 0.09437156
0.03991201 0.070907354 -0.057334233 -0.058587097 0.021837858 -0.12531795 0.03402554 0.065512784
0.024895776 0.04445163 0.010665941 -0.08000222 -0.123393066 -0.035691712 0.102093354 0.010088605
-0.119384445 0.08589712 -0.084637806 -0.011217961 -0.05072513 0.13982727 -0.04454945 -0.045330208
-0.09632334 0.058506142 0.12009224 -0.11126543 -0.07164204 0.022610331 0.0781282 0.06605504
-0.091876656 0.0024690216 -0.052060615 0.08953214 -0.08645027 0.05158408 0.039609376 0.005923505
-0.017921804 0.0094374865 0.022022758 0.090969145 0.0520267 0.05961874 0.015988475 0.003593137
0.17677261 -0.016460506 -0.047654144 -0.052514058 0.20215586 -0.07469038 -0.059336316 0.013415365
-0.09478374 0.0053536007 -0.021709196 0.09216457 -0.11481377 -0.104027055 -0.033894073 -0.074291274
0.014073816 0.012035438 0.1045433 0.033621415 0.016420737 -0.047706936 0.0014470908 -0.06241236
-0.0025598803 0.013521776 -0.07866546 0.010570171 -0.120518774 -0.0415489 0.08120178 0.04846057
00000000: 40d1 243d 562c 873d 4d1a 08bd 1e5b b1bd
00000010: 596f f5bd dcf9 85bc b213 56bd 7388 35bd
00000020: 8910 43bb 8983 a2bc b357 cbbb a50f bf3c
00000030: d990 8fbd 26a0 923d 34c7 033c d133 2cbd
00000040: ac66 30bd 939c a53d 9dbb 56bb fc4c 37be
00000050: 1e2b e4bc b1be 303c 7a0e 583d 80cf f5bd
00000060: 9be0 aabd e56f d9bc 5e41 4fbb 8a09 26bc
00000070: 6839 f9bd 4b79 e7bd 96a2 2b3d 712d 193d
00000080: 1c0e 893d 90dc 9a3c 4bbc 8ebd b801 beba
00000090: 8e50 9dbc d830 573d a68f f3bb 95b2 72bd
000000a0: 5809 a1bd 7212 fe3d 5985 a43d 128c b43c
000000b0: 923f 7e3d 9c09 1c3e 0f76 a0bd e045 c13d
000000c0: c77a 233d e037 913d 4dd7 6abd 06f9 6fbd
000000d0: 4fe5 b23c 5953 00be 5d5e 0b3d 912b 863d
000000e0: 3af2 cb3c ea12 363d 33c0 2e3c 34d8 a3bd
000000f0: 81b5 fcbd 7931 12bd 5216 d13d ad4a 253c
00000100: d57f f4bd d4ea af3d 9656 adbd 8acb 37bc
00000110: 27c5 4fbd e12e 0f3e 7c79 36bd 2bac 39bd
00000120: 2c45 c5bd 23a4 6f3d ecf2 f53d 21df e3bd
00000130: 10b9 92bd 4d39 b93c ad01 a03d dd47 873d
00000140: d429 bcbd 4fcf 213b 833d 55bd a05c b73d
00000150: d70c b1bd d449 533d 713d 223d f619 c23b
00000160: bfd0 92bc b09f 1a3c 1269 b43c 084e ba3d
00000170: f319 553d c832 743d 43fa 823c d67a 6b3b
00000180: e103 353e 2fd8 86bc fe30 43bd fb18 57bd
00000190: f201 4f3e 45f7 98bd a30a 73bd 1ecc 5b3c
000001a0: fa1d c2bd 426d af3b 7cd7 b1bc c7c0 bc3d
000001b0: 7b23 ebbd 230c d5bd 83d4 0abd 0626 98bd
000001c0: dd95 663c 4930 453c cc1a d63d 9cb6 093d
000001d0: c884 863c 5968 43bd 4fac bd3a 1aa4 7fbd
000001e0: aac3 27bb 708a 5d3c 5b1b a1bd 832e 2d3c
000001f0: 8cd2 f6bd 2e2f 2abd 1e4d a63d 977e 463d

network.2.weight f4 [128]
0.9251767 0.95345044 1.0115056 0.9872929 1.0388184 0.9706024 1.0238336 0.9221815
0.9289936 0.94552624 0.9440985 0.9540161 0.9097311 0.9395869 0.92859095 1.0616262
1.0101811 0.9377387 0.8878047 0.98945355 0.99490196 1.0419159 0.9108796 0.8989775
0.9302203 1.022688 0.90254766 0.9167498 1.0365288 0.97799283 0.926896 0.9501801
0.9644049 0.97310823 0.97456807 0.91350216 0.98046225 0.9450021 0.9834958 0.9505587
0.9489782 0.9171822 1.0287263 1.0227628 0.9996906 0.970192 0.9587058 0.92967254
0.9904569 0.8997077 0.9922732 0.886661 0.9778042 0.9064557 0.89680415 0.98277575
0.8733178 0.9512301 0.96580386 0.8894224 1.0094754 0.9918308 0.89823467 0.9098505
0.97229505 0.8938212 0.9568062 0.8867234 0.9066418 0.8709182 0.8795382 0.9890733
0.93682295 1.0759499 0.9349801 0.9141549 0.89519536 0.9406632 0.94269407 0.9804358
0.9121627 0.94862384 0.86389047 0.96371865 1.0749145 0.8953705 0.8910542 0.9542645
0.85584706 0.9138758 0.9384964 0.8749431 1.0361216 0.9963342 0.91199934 0.9549382
0.95794535 0.90234727 0.9376275 0.96422505 0.9853847 0.90952474 0.91665864 0.9458796
0.97064567 1.0688696 0.9127244 1.0315274 0.93366146 0.8986035 1.0487117 1.0285596
1.0235085 0.93759435 0.9719131 0.9967014 0.945808 0.9500264 1.0436003 0.94432825
1.0661407 0.92247844 0.85562366 0.9628106 0.92624915 1.0241898 0.9287407 0.99111575
00000000: 61d8 6c3f 5415 743f 0479 813f 3abf 7c3f
00000010: 00f8 843f 6679 783f fb0c 833f 1614 6c3f
00000020: 86d2 6d3f 020e 723f 70b0 713f 663a 743f
00000030: 23e4 683f c488 703f 23b8 6d3f 5ee3 873f
00000040: 9d4d 813f a50f 703f 2b47 633f d44c 7d3f
00000050: e5b1 7e3f 805d 853f 682f 693f 6423 663f
00000060: eb22 6e3f 71e7 823f 5d0d 673f 1db0 6a3f
00000070: faac 843f bd5d 7a3f 0e49 6d3f 013f 733f
00000080: 3de3 763f 9f1d 793f 4b7d 793f 47db 693f
00000090: 93ff 7a3f a8eb 713f 61c6 7b3f d157 733f
000000a0: 3cf0 723f 74cc 6a3f 4ead 833f e4e9 823f
000000b0: b9eb 7f3f 815e 783f be6d 753f 05ff 6d3f
000000c0: 958e 7d3f 3e53 663f 9e05 7e3f 37fc 623f
000000d0: 6051 7a3f 7b0d 683f f594 653f 3197 7b3f
000000e0: c191 5f3f d183 733f ec3e 773f 30b1 633f
000000f0: 7d36 813f a0e8 7d3f b5f2 653f f6eb 683f
00000100: 54e8 783f 77d1 643f 40f1 743f 4e00 633f
00000110: ad19 683f 7ff4 5e3f 6a29 613f e833 7d3f
00000120: a1d3 6f3f bab8 893f db5a 6f3f 0e06 6a3f
00000130: 862b 653f 4ecf 703f 6654 713f d7fd 7a3f
00000140: 7f83 693f 03d9 723f ed27 5d3f 44b6 763f
00000150: cc96 893f 0037 653f 211c 643f ae4a 743f
00000160: cb18 5b3f c4f3 693f 4d41 703f 45fc 5f3f
00000170: a29f 843f c20f 7f3f ca78 693f d476 743f
00000180: e83b 753f 3b00 673f 5b08 703f 74d7 763f
00000190: 2c42 7c3f 9dd6 683f 24aa 6a3f 2a25 723f
000001a0: 3c7c 783f b8d0 883f 4ea8 693f 1709 843f
000001b0: 7004 6f3f e10a 663f 2f3c 863f d7a7 833f
000001c0: 5402 833f 2f06 703f 4ccf 783f d327 7f3f
000001d0: 7920 723f ee34 733f b294 853f 7fbf 713f
000001e0: 4c77 883f 8c27 6c3f 270a 5b3f c17a 763f
000001f0: aa1e 6d3f a718 833f f3c1 6d3f c3b9 7d3f

network.2.bias f4 [128]
0.11173219 0.281731 0.21306826 0.12335474 0.21355686 0.120504305 0.15161353 0.037932083
-0.025499891 0.054267567 0.13810879 -0.11192886 -0.015942587 0.09408674 0.22598866 0.25910422
-0.14330184 -0.050511204 -0.10360935 -0.09437422 0.09502235 0.15216503 -0.10736853 -0.19101666
0.06357229 0.24731442 0.020515854 -0.118355356 -0.026247634 0.0054418123 0.15575503 0.20766415
0.11561436 0.16822574 -0.094537504 0.0814176 0.18594067 -0.061577503 0.21160462 -0.12703441
0.17135726 -0.0694429 0.30605718 0.07838447 0.12500742 0.058637865 0.15337507 0.032663703
0.10500726 -0.048467908 0.1851045 -0.07748158 -0.043327916 0.012545589 -0.056140646 0.02139135
0.16164733 0.14049421 0.12324238 -0.13487092 -0.08046154 -0.26021707 -0.005344185 0.15283513
-0.13475992 -0.058977827 -0.19777286 0.019264897 -0.07103275 0.0046454403 -0.09172996 0.18598726
0.059423525 0.17017671 0.032000273 0.013775609 0.019382663 0.13388589 -0.06343078 0.30426043
0.11049183 -0.115800194 0.07434296 0.110205345 -0.05351909 0.19822514 -0.07382026 -0.16017543
-0.041283783 -0.0033914284 -0.1154532 0.03717799 -0.0046929023 0.09756033 0.017090352 -0.16666782
0.18633668 -0.068018995 -0.12849903 -0.010521146 0.18639238 -0.11913576 -0.047485497 0.24679025
-0.13018797 0.30870992 0.08386533 0.1343599 0.0072933803 -0.035287175 0.23216856 0.104245
0.22012025 0.06280045 0.19536014 0.12034014 0.17588493 0.052932363 0.1809067 0.13505916
0.1800136 -0.041583464 -0.0058420002 0.27854872 0.102634326 -0.05978463 -0.10088806 0.10527518
00000000: d9d3 e43d 0c3f 903e 912e 5a3e 69a1 fc3d
00000010: a6ae 5a3e f6ca f63d 9440 1b3e ac5e 1b3d
00000020: 26e5 d0bc ab47 5e3d 646c 0d3e f53a e5bd
00000030: 079a 82bc 8cb0 c03d 9269 673e 4fa9 843e
00000040: b8bd 12be d6e4 4ebd 2431 d4bd 4547 c1bd
00000050: 149b c23d 26d1 1b3e 08e4 dbbd df99 43be
00000060: 3032 823d fe3f 7d3e dd10 a83c 4b64 f2bd
00000070: 4705 d7bc 3b51 b23b 3f7e 1f3e e9a5 543e
00000080: 39c7 ec3d 5e43 2c3e e19c c1bd 45be a63d
00000090: 3b67 3e3e b138 7cbd e2ae 583e 4f15 02be
000000a0: 4778 2f3e 1438 8ebd 87b3 9c3e 0988 a03d
000000b0: f201 003e 422e 703d 5b0e 1d3e 60ca 053d
000000c0: 0c0e d73d 4986 46bd 098c 3d3e aaae 9ebd
000000d0: 9d78 31bd 048c 4d3c bcf3 65bd ea3c af3c
000000e0: e186 253e b7dd 0f3e 8066 fc3d 9a1b 0abe
000000f0: 05c9 a4bd 2c3b 85be 461e afbb d080 1c3e
00000100: 81fe 09be bc92 71bd f884 4abe 6bd1 9d3c
00000110: 9e79 91bd c738 983b ebdc bbbd 7273 3e3e
00000120: 1566 733d ce42 2e3e b812 033d 18b3 613c
00000130: 64c8 9e3c 6219 093e ffe7 81bd 06c8 9b3e
00000140: 8a49 e23d a728 edbd 1f41 983d 57b3 e13d
00000150: d536 5bbd 88fb 4a3e 142f 97bd 0705 24be
00000160: 2f19 29bd ba42 5ebb ba72 ecbd f347 183d
00000170: ebc6 99bb b6cd c73d 1101 8c3c f8aa 2abe
00000180: 0bcf 3e3e 8b4d 8bbd 4095 03be e260 2cbc
00000190: a5dd 3e3e 73fd f3bd 2780 42bd 95b6 7c3e
000001a0: ff4f 05be 3a0f 9e3e 96c1 ab3d a495 093e
000001b0: 4ffd ee3b 4989 10bd 98bd 6d3e 677e d53d
000001c0: 3467 613e 869d 803d 7d0c 483e e474 f63d
000001d0: 2e1b 343e 9bcf 583d 9b3f 393e f34c 0a3e
000001e0: 7c55 383e 6c53 2abd 406e bfbb f09d 8e3e
000001f0: f231 d23d bae0 74bd 669e cebd 839a d73d

network.2.running_mean f4 [128]
257.46725 18.916138 3.541873 2.981373 7.344165 35.202393 0.9500583 12.907789
0.12889087 23.825773 246.92635 0.89542615 3.3778586 0.19819233 37.59511 0.6321016
4.100311 3.6132216 340.2928 2.5069623 6.787527 1.2144811 12.970759 0.3500465
54.48989 2.0245395 342.90997 5.110357 0.37991518 0.77865845 224.50925 32.567627
7.0664315 4.9629583 11.425902 335.34598 9.677394 0.0008434905 4.954083 1.8455819
46.99641 131.1834 4.648187 2.1460886 2.566805 70.20584 7.6635737 360.09085
4.1271544 569.0764 1.2925694 0.33578068 0.016608346 442.83133 271.28784 9.198118
237.35132 67.93029 8.614543 119.83768 0.019652063 7.0541573 100.9347 36.07759
13.806709 1.360901 0.24944611 334.93704 452.8169 41.54638 348.6569 7.8822913
1.2742727 0.57347286 398.60287 351.65448 456.48843 14.180021 3.7673976 2.8639712
126.1162 40.298145 0.3141871 100.77783 2.7403557 225.48706 194.45395 3.6301885
14.657262 9.856577 41.449173 37.26464 0.6317119 87.318016 2.3601372 6.8730054
9.776164 14.1663065 45.4004 13.053443 16.155031 9.434845 5.740273 1.92948
0.7498941 1.8522199 1.302613 1.240581 5.0307083 2.1270175 2.5978508 0.756579
1.0388736 0.42258394 73.12412 2.5980494 3.2549567 7.647963 1.524214 35.32249
1.8111821 3.6130066 3.5595868 20.198257 19.539297 0.015922707 45.254185 3.7901847
00000000: cfbb 8043 4054 9741 0cae 6240 d1ce 3e40
00000010: 6603 eb40 40cf 0c42 0537 733f 4e86 4e41
00000020: f8fb 033e 2f9b be41 25ed 7643 a63a 653f
00000030: d62e 5840 eef2 4a3e 6561 1642 69d1 213f
00000040: bf35 8340 063f 6740 7a25 aa43 1272 2040
00000050: 6c33 d940 1e74 9b3f 3b88 4f41 4b39 b33e
00000060: a6f5 5942 0e92 0140 7a74 ab43 0b88 a340
00000070: 3e84 c23e 2956 473f 5e82 6043 4045 0242
00000080: 3520 e240 8ed0 9e40 7fd0 3641 49ac a743
00000090: 9bd6 1a41 b01d 5d3a d987 9e40 073c ec3f
000000a0: 53fc 3b42 f32e 0343 f3bd 9440 8459 0940
000000b0: 8846 2440 6469 8c42 ff3b f540 a10b b443
000000c0: a611 8440 e444 0e44 ea72 a53f 72eb ab3e
000000d0: 3a0e 883c 696a dd43 d8a4 8743 7e2b 1341
000000e0: f059 6d43 4fdc 8742 2bd5 0941 e4ac ef42
000000f0: 5dfd a03c a8bb e140 91de c942 744f 1042
00000100: 48e8 5c41 0132 ae3f cd6e 7f3e f177 a743
00000110: 9068 e243 7e2f 2642 1554 ae43 bb3b fc40
00000120: 5e1b a33f 1ecf 123f 2b4d c743 c6d3 af43
00000130: 853e e443 5ee1 6241 0b1d 7140 4e4b 3740
00000140: 7f3b fc42 4d31 2142 22dd a03e 408e c942
00000150: fd61 2f40 b07c 6143 3674 4243 0255 6840
00000160: 2584 6a41 8ab4 1d41 f4cb 2542 fe0e 1542
00000170: dfb7 213f d3a2 ae42 7d0c 1740 a9ef db40
00000180: 2b6b 1c41 31a9 6241 029a 3542 e7da 5041
00000190: 813d 8141 20f5 1641 51b0 b740 33f9 f63f
000001a0: 0ff9 3f3f 8b15 ed3f 06bc a63f 5ccb 9e3f
000001b0: 90fb a040 0e21 0840 3043 2640 29af 413f
000001c0: cff9 843f ec5c d83e 8d3f 9242 7146 2640
000001d0: 3651 5040 1dbc f440 7219 c33f 3b4a 0d42
000001e0: d1d4 e73f 803b 6740 45d0 6340 0896 a141
000001f0: 7b50 9c41 5670 823c 4904 3542 6392 7240

network.2.running_var f4 [128]
6.3539025e+06 1487.5087 65.82123 210.85847 388.57895 36605.656 24.953505 66189.52
23.793398 5950.966 5.972119e+06 4.970774 1084.2091 1.139294 9385.17 1.5711188
37.411682 363.50317 1.0121504e+07 19.157135 1270.887 28.697468 254.42918 158.1875
14779.865 10.686013 1.0109123e+07 76.633995 11.049218 13.397173 4.5874115e+06 1514.9025
96.55626 352.9007 201.67284 9.127783e+06 169.5664 0.09143143 232.15384 371.04865
20818.168 261573.52 13.440535 47.630047 708.8175 77458.71 748.8241 1.1907982e+07
1810.1484 3.0426554e+07 4.413838 2.6658714 0.100433305 1.5641909e+07 7.167146e+06 47995.98
4.1645688e+06 6783.8066 8742.895 1.3822111e+06 0.15678918 65.05169 10953.264 24465.64
255.25099 136.98434 0.73227805 9.028313e+06 1.9972838e+07 3079.2473 1.1466802e+07 330.26453
132.97586 6.992901 9.009688e+06 1.1004746e+07 1.9580356e+07 33026.94 149.2002 17.789566
1.5033691e+06 1736.8783 9.06499 245518.61 41.464382 4.5050695e+06 2.8770055e+06 44.54965
40686.273 145.43686 391.6241 4548.3394 51.31219 78841.51 477.5555 105.756744
225.95044 48722.453 207539.98 226.7377 525.23444 292.60855 5600.8374 19.471195
30.531334 4.4165373 40.09293 27.646494 5828.3833 1690.2794 77.31876 80.42342
10.553612 49.180634 103003.805 252.38687 52.842236 28857.814 37.558365 4053.5095
31.449318 58.158005 2024.0078 597.6334 233906.73 0.10209025 3729.3086 262.02216
00000000: dde7 c14a 47f0 b944 78a4 8342 c5db 5243
00000010: 1b4a c243 a8fd 0e47 c7a0 c741 c346 8147
00000020: e158 be41 baf7 b945 2e41 b64a 9510 9f40
00000030: b186 8744 63d4 913f aea4 1246 6c1a c93f
00000040: 90a5 1542 68c0 b543 2071 1a4b d041 9941
00000050: 62dc 9e44 6a94 e541 df6d 7e43 0030 1e43
00000060: 76ef 6646 e9f9 2a41 c340 1a4b 9b44 9942
00000070: 99c9 3041 d25a 5641 27ff 8b4a e15c bd44
00000080: ce1c c142 4a73 b043 3fac 4943 6747 0b4b
00000090: 0091 2943 6740 bb3d 6227 6843 3a86 b943
000000a0: 56a4 a246 6171 7f48 6e0c 5741 2b85 3e42
000000b0: 5234 3144 5b49 9747 be34 3b44 8eb3 354b
000000c0: c044 e244 dd22 e84b 293e 8d40 a39d 2a40
000000d0: faaf cd3d 35ad 6e4b 54b9 da4a fb7b 3b47
000000e0: 632f 7e4a 74fe d345 949b 0846 19ba a849
000000f0: 588d 203e 771a 8242 0e25 2b46 4823 bf46
00000100: 4140 7f43 fefb 0843 9376 3b3f d9c2 094b
00000110: 7361 984b f573 4045 32f8 2e4b dc21 a543
00000120: d2f9 0443 d8c5 df40 187a 094b 4aeb 274b
00000130: e262 954b f102 0147 4033 1543 0851 8e41
00000140: 4984 b749 1b1c d944 330a 1141 a7c3 6f48
00000150: 87db 2542 db7b 894a 3699 2f4a d732 3242
00000160: 46ee 1e47 d66f 1143 e3cf c343 b722 8e45
00000170: af3f 4d42 c1fc 9947 1bc7 ee43 7483 d342
00000180: 50f3 6143 7452 3e47 ffac 4a48 dabc 6243
00000190: 014f 0344 e54d 9243 b306 af45 02c5 9b41
000001a0: 2c40 f441 4654 8d40 295f 2042 052c dd41
000001b0: 1123 b645 f148 d344 35a3 9a42 cbd8 a042
000001c0: 98db 2841 f8b8 4442 e72d c947 0a63 7c43
000001d0: 735e 5342 a173 e146 c43b 1642 2758 7d45
000001e0: 3498 fb41 cca1 6842 4000 fd44 8a68 1544
000001f0: af6c 6448 b114 d13d f014 6945 d602 8343

network.4.weight f4 [64, 128]
-0.07273458 -0.043017138 -0.025009636 -0.03747418 0.00995752 0.010142723 -0.050436858 -0.061761674
-0.102107964 0.029093353 -0.0026797662 -0.05444248 0.018212281 -0.030954931 -0.048776045 0.10029959
-0.07527631 0.021247745 -0.040449467 -0.0038531658 -0.029874815 -0.053194385 0.0063109496 -0.0069624013
-0.058804914 0.107029624 -0.008429204 0.07860972 0.031403903 0.0095379595 0.025718186 -0.061980285
0.10705973 -0.061894577 0.048358634 0.012238552 0.087222636 -6.584231e-05 0.02084055 0.02245343
0.008529888 0.059625078 0.114246786 0.0019658438 -0.03567413 0.027429426 -0.007155782 -0.07705358
0.030768143 0.048686996 0.12031581 -0.089636035 -0.0662182 0.060283963 0.07079475 -0.036681015
-0.076863915 -0.071946524 0.026145572 0.054189887 -0.009689744 0.050529625 -0.0778706 0.0060153776
0.0428205 0.02195249 0.0058176285 0.009051714 -0.002872842 -0.0725375 0.050808705 0.019975202
-0.057893343 0.08914857 0.044657625 0.06041302 -0.027370676 -0.06676278 0.006814894 0.04375397
-0.0191443 0.019250344 -0.022413349 0.053885832 -0.017172338 -0.08318626 0.029510727 0.046963774
0.03937935 0.032796282 0.006577977 -0.028104361 0.03657241 0.0011645319 0.01740473 0.08732285
-0.032134622 -0.08035299 0.00018166278 -0.024496743 -0.055710346 0.033447277 -0.06768063 -0.01603981
0.023809452 0.11476727 0.041809138 -0.0074486253 -0.093634844 -0.08809696 -0.030599512 -0.009542171
0.10279301 -0.034834724 -0.13136542 0.045116223 0.00927371 -0.046728212 -0.12509805 -0.09222065
0.004769738 0.021919351 0.034992106 0.01923218 -0.115988 0.0056103487 0.011829109 0.0148180425
-0.08369515 -0.07810583 0.011607603 -0.03331699 -0.0968055 -0.040121406 -0.057900097 0.045920536
0.027833778 -0.08577984 -0.05337342 0.04691206 0.043566063 0.013704293 -0.040610846 -0.17494957
0.049677115 0.07435429 0.032427307 0.018122619 -0.11372557 -0.11540144 0.061699312 0.008460594
0.037052795 -0.010879437 -0.045633033 -0.0038974578 0.0671498 0.073032476 -0.106209025 -0.042588733
-0.078957975 0.0142060565 -0.022545619 0.027388737 -0.05184787 0.064783856 -0.075481154 -0.02264255
-0.090094976 -0.07399579 -0.19798875 -0.017122895 -0.14912176 -0.05518677 0.001389362 0.0070184898
-0.08418542 -0.008101974 -0.058882892 -0.014851019 -0.017688995 -0.021210091 -0.07617725 -0.07866142
-0.00039763647 -0.050336733 -0.04143572 -0.002191417 0.03653275 5.8972037e-05 -0.07083344 -0.040592466
0.038569104 -0.049688216 0.08685333 0.023497289 0.054703932 -0.010869821 -0.012519367 -0.051256534
-0.027414393 -0.14529651 0.032970816 -0.045557465 0.048534416 -0.069783665 0.009484922 -0.08784618
-0.010213788 -0.0042448253 0.022412779 0.045891456 0.0921034 -0.028147541 0.0052068383 -0.10931571
-0.021607276 0.036857 0.041158702 0.005838871 0.04104056 -0.13438196 -0.006484469 -0.0065660193
0.0070077726 0.013081559 0.05969812 0.02691744 0.04630106 -0.016962636 -0.015045717 -0.035590656
0.013283836 -0.0062278844 0.032349408 0.04238855 -0.01981405 0.0030384015 -0.1047285 -0.115668744
-0.13396797 0.018360874 -0.017521814 0.031243272 0.017045936 -0.10188921 -0.054621186 -0.04589642
-0.06002206 0.021871388 0.010490207 0.08018257 0.040238358 0.07266899 -0.09938837 0.039997812
00000000: def5 94bd bd32 30bd 02e1 ccbc 877e 19bd
00000010: de24 233c aa2d 263c e196 4ebd cff9 7cbd
00000020: fb1d d1bd 2f55 ee3c 049f 2fbb 14ff 5ebd
00000030: ec31 953c 3295 fdbc 64c9 47bd df69 cd3d
00000040: 772a 9abd c00f ae3c 57ae 25bd 6585 7cbb
00000050: 07bc f4bc 5be2 59bd 15cc ce3b db24 e4bb
00000060: 6cdd 70bd 5932 db3d a51a 0abc 22fe a03d
00000070: 61a1 003d 1a45 1c3c f2ae d23c 0adf 7dbd
00000080: 2242 db3d 2b85 7dbd b413 463d 3584 483c
00000090: c8a1 b23d d214 8ab8 cdb9 aa3c 41f0 b73c
000000a0: f1c0 0b3c 6d39 743d 38fa e93d 63d5 003b
000000b0: 091f 12bd adb3 e03c 0d7b eabb 44ce 9dbd
000000c0: 790d fc3c 046c 473d 2368 f63d 1993 b7bd
000000d0: 689d 87bd 51ec 763d d6fc 903d d53e 16bd
000000e0: d46a 9dbd b358 93bd 3d2f d63c 37f6 5d3d
000000f0: bbc1 1ebc 27f8 4e3d 9f7a 9fbd a51c c53b
00000100: 8c64 2f3d b5d5 b33c cea1 be3b a44d 143c
00000110: 4a46 3cbb 8a8e 94bd ca1c 503d 09a3 a33c
00000120: 9221 6dbd 8793 b63d eaea 363d a573 773d
00000130: 7838 e0bc edba 88bd 794f df3b 5d37 333d
00000140: 82d4 9cbc e6b2 9d3c 339c b7bc 64b7 5c3d
00000150: 01ad 8cbc 8f5d aabd 7bc0 f13c 165d 403d
00000160: 3e4c 213d 6555 063d 128c d73b 1e3b e6bc
00000170: f4cc 153d 35a3 983a 5d94 8e3c 53d6 b23d
00000180: 989f 03bd 1c90 a4bd bb7c 3e39 65ad c8bc
00000190: 8830 64bd 0300 093d 249c 8abd eb65 83bc
000001a0: 0a0c c33c 1a0b eb3d 0f40 2b3d 9913 f4bb
000001b0: a0c3 bfbd 2e6c b4bd d4ab fabc c456 1cbc
000001c0: 2485 d23d dbae 0ebd a884 06be cacb 383d
000001d0: c2f0 173c 1566 3fbd b419 00be 2ede bcbd
000001e0: 764b 9c3b 3690 b33c e253 0f3d ce8c 9d3c
000001f0: 1e8b edbd 04d7 b73b e1ce 413c 60c7 723c
00000200: 5d68 abbd f3f5 9fbd d12d 3e3c 6577 08bd
00000210: f641 c6bd 5856 24bd a728 6dbd 2c17 3c3d
00000220: aa03 e43c 57ad afbd 169e 5abd dc26 403d
00000230: 5472 323d f987 603c 8f57 26bd fb25 33be
00000240: 3b7a 4b3d 1047 983d 7fd2 043d e375 943c
00000250: f4e8 e8bd 9757 ecbd 6bb8 7c3d 4e9e 0a3c
00000260: acc4 173d ab3f 32bc b4e9 3abd 7e6c 7fbb
00000270: d685 893d 0d92 953d 1e84 d9bd 8671 2ebd
00000280: b8b4 a1bd 85c0 683c 97b1 b8bc 585e e03c
00000290: 6f5e 54bd 66ad 843d dd95 9abd de7c b9bc
000002a0: b783 b8bd 1b8b 97bd 90bd 4abe 5045 8cbc
000002b0: 60b3 18be 860b 62bd 411b b63a 5cfb e53b
000002c0: 6869 acbd 24be 04bc 302f 71bd b051 73bc
000002d0: 83e8 90bc c9c0 adbc d102 9cbd 3d19 a1bd
000002e0: dd79 d0b9 e42d 4ebd 80b8 29bd e09d 0fbb
000002f0: 5da3 153d be58 7738 1f11 91bd 4944 26bd
00000300: a3fa 1d3d df85 4bbd 29e0 b13d 637d c03c
00000310: 3b11 603d 5517 32bc 081e 4dbc 5ff2 51bd
00000320: 2694 e0bc 9cc8 14be 680c 073d 779a 3abd
00000330: 06cc 463d bdea 8ebd a566 1b3c b3e8 b3bd
00000340: bb57 27bc 2d18 8bbb 019b b73c aef8 3b3d
00000350: b5a0 bc3d ac95 e6bc 209e aa3b eae0 dfbd
00000360: be01 b1bc 5ef7 163d 0796 283d 0054 bf3b
00000370: 251a 283d 6d9b 09be ab7b d4bb c327 d7bb
00000380: 75a1 e53b 0954 563c 0486 743d f781 dc3c
00000390: 2ea6 3d3d 3af5 8abc 5082 76bc 82c7 11bd
000003a0: 72a4 593c 4813 ccbb d080 043d 9e9f 2d3d
000003b0: 1351 a2bc eb1f 473b e57b d6bd bce3 ecbd
000003c0: e62e 09be 8b69 963c e889 8fbc e4f1 ff3c
000003d0: eba3 8b3c 4aab d0bd 77ba 5fbd e2fd 3bbd
000003e0: b1d9 75bd a02b b33c 1edf 2b3c c236 a43d
000003f0: fad0 243d 7bd3 943d 218c cbbd bfd4 233d

network.4.bias f4 [64]
0.020301795 -0.06755537 0.028060306 -0.23005258 -0.09311328 -0.08318662 -0.039231565 -0.03416625
0.08653729 -0.16534 -0.14419317 0.07721737 -0.2299375 -0.15889494 -0.021254977 -0.03928767
-0.21319775 -0.28539476 -0.077036716 0.14375487 -0.054223575 0.10324075 0.0078573 0.022919098
-0.28610343 0.020397438 -0.10528839 -0.11035119 -0.04112043 -0.096712075 -0.1214014 -0.23266484
0.054781575 0.018770026 0.04500595 -0.07458049 -0.15030777 -0.078065954 0.162679 0.088353574
-0.18524063 -0.10153462 0.047846004 0.05810407 -0.21934442 0.09997138 -0.2692923 0.03496235
0.088322416 -0.24535157 -0.115055926 0.0919073 0.031337056 -0.13276629 -0.0031611803 -0.1638553
0.045642495 -0.064261824 -0.0877467 -0.22016582 -0.117626786 -0.16040114 0.0038586222 -0.20232321
00000000: f34f a63c 785a 8abd bade e53c e792 6bbe
00000010: 2db2 bebd bf5d aabd 47b1 20bd e9f1 0bbd
00000020: 763a b13d e44e 29be 60a7 13be 2424 9e3d
00000030: bc74 6bbe 5bb5 22be eb1e aebc 1cec 20bd
00000040: 8350 5abe 431f 92be 6dc5 9dbd 7a34 133e
00000050: 8a19 5ebd e36f d33d e8bb 003c d5c0 bb3c
00000060: 267c 92be 8718 a73c 70a1 d7bd ceff e1bd
00000070: e56d 28bd fb10 c6bd 4ca1 f8bd b13f 6ebe
00000080: a562 603d 99c3 993c 2958 383d a8bd 98bd
00000090: 48ea 19be 0be1 9fbd 5395 263e b8f2 b43d
000000a0: b8af 3dbe 62f1 cfbd 2cfa 433d 89fe 6d3d
000000b0: d39b 60be cbbd cc3d aee0 89be ae34 0f3d
000000c0: 62e2 b43d 713d 7bbe 71a2 ebbd e539 bc3d
000000d0: 495b 003d e3f3 07be ce2b 4fbb afc9 27be
000000e0: a0f3 3a3d b49b 83bd 8bb4 b3bd 2673 61be
000000f0: 50e6 f0bd 3240 24be f0e0 7c3b d12d 4fbe

network.6.weight f4 [64]
1.0969431 1.0610251 1.0238082 1.0894178 1.0649153 1.0818301 1.0952009 1.055009
1.0728934 1.126475 1.1347734 0.9910668 1.0063317 1.0170251 1.0254362 1.1562027
1.0008518 1.0464392 1.012076 1.0481046 1.0382177 1.0342753 1.0176654 1.1089667
1.148946 1.0907356 1.1723781 1.008909 1.1481242 1.0524441 1.1285645 1.0725094
1.0900859 1.0673509 1.0111715 1.0243423 1.038881 1.1299227 1.0351458 1.0476987
1.1322871 1.109341 1.0614074 1.0795212 1.0328808 1.0680964 1.0281662 1.0983566
1.0247095 1.0893588 1.1062934 1.0807736 1.0410985 1.1432794 1.1000896 1.0309525
1.1170201 1.1658864 1.0825565 1.0053675 1.0494801 1.0593898 1.0294873 1.11632
00000000: a268 8c3f accf 873f 260c 833f 0b72 8b3f
00000010: 254f 883f 6979 8a3f 8b2f 8c3f 890a 873f
00000020: 9254 893f 5530 903f 4140 913f 8eb6 7d3f
00000030: 7acf 803f e12d 823f 7e41 833f 73fe 933f
00000040: e91b 803f b8f1 853f b58b 813f 4b28 863f
00000050: 51e4 843f 2263 843f dc42 823f 9ff2 8d3f
00000060: aa10 933f 399d 8b3f 7c10 963f ee23 813f
00000070: bcf5 923f 7db6 863f cd74 903f fd47 893f
00000080: ef87 8b3f f49e 883f 116e 813f a61d 833f
00000090: 0dfa 843f 4fa1 903f a87f 843f fe1a 863f
000000a0: c9ee 903f e3fe 8d3f 33dc 873f c02d 8a3f
000000b0: 7035 843f 62b7 883f f39a 833f f396 8c3f
000000c0: ae29 833f 1c70 8b3f 069b 8d3f ca56 8a3f
000000d0: b742 853f fb56 923f bccf 8c3f 40f6 833f
000000e0: 84fa 8e3f c43b 953f 3691 8a3f e2af 803f
000000f0: 5d55 863f 169a 873f 3dc6 833f 93e3 8e3f

network.6.bias f4 [64]
0.53305054 -0.38908193 0.42960432 -0.3656485 -0.4101001 -0.44120008 -0.4273433 0.43148872
0.42446166 -0.4174997 -0.43988353 0.4433877 -0.35081443 -0.36062327 0.4047424 -0.5092829
-0.3570589 -0.34781352 -0.3894684 0.45842093 -0.38289055 0.4540656 0.4215572 -0.481335
-0.43576127 0.43947542 -0.4336083 -0.3786202 -0.5067242 0.4292557 -0.45357242 -0.4119128
-0.4662779 0.3917801 0.43529418 -0.38790163 -0.3982593 -0.49522766 0.48899817 0.42694545
-0.45058012 -0.40592438 0.5095527 0.41427606 -0.36684436 0.5082887 -0.3693426 0.42807525
0.40802374 -0.39230627 -0.4241072 0.53988695 0.4551017 -0.44323355 0.39513037 -0.3626493
0.51561797 -0.57453114 0.37899488 -0.34068707 -0.38345134 -0.37246272 0.40667233 -0.40844706
00000000: 0076 083f bf35 c7be 19f5 db3e 4836 bbbe
00000010: a4f8 d1be fae4 e1be becc dabe 17ec dc3e
00000020: 0a53 d93e 85c2 d5be 6a38 e1be b603 e33e
00000030: f39d b3be 9da3 b8be 653a cf3e 5d60 02bf
00000040: 6dd0 b6be 9d14 b2be 6768 c7be 26b6 ea3e
00000050: 3b0a c4be 497b e83e 58d6 d73e 8b71 f6be
00000060: 1a1c dfbe ec02 e13e e801 debe 82da c1be
00000070: adb8 01bf 67c7 db3e a53a e8be 3ce6 d2be
00000080: fabb eebe 6797 c83e e1de de3e 0b9b c6be
00000090: a5e8 cbbe 7b8e fdbe f85d fa3e 9898 da3e
000000a0: 70b2 e6be 52d5 cfbe 0c72 023f fe1b d43e
000000b0: 06d3 bbbe 351f 023f 791a bdbe ae2c db3e
000000c0: 7de8 d03e 5edc c8be 9424 d9be 0836 0a3f
000000d0: 1703 e93e 82ef e2be 874e ca3e 2bad b9be
000000e0: 8aff 033f 7914 13bf 9e0b c23e 896e aebe
000000f0: bc53 c4be 6fb3 bebe 5b37 d03e f91f d1be

network.6.running_mean f4 [64]
0.31479007 0.12747529 0.3195082 0.068140484 0.10451484 0.10144444 0.12572727 0.1949577
0.47765815 0.1048044 0.06443723 0.35524288 0.06640145 0.085175246 0.21417972 0.11713918
0.090683706 0.06695727 0.107752375 0.4796642 0.10222142 0.3112812 0.29173687 0.17703214
0.05805008 0.33408475 0.13132791 0.09828594 0.13433747 0.2879511 0.08360686 0.080618136
0.22373372 0.34423342 0.3975599 0.1358402 0.083180636 0.13488762 0.36271584 0.36919516
0.09114378 0.11568464 0.40864676 0.34306645 0.07474591 0.38989612 0.08471541 0.35200325
0.34965608 0.0731439 0.105091564 0.35485804 0.28754792 0.096975066 0.20811221 0.10592122
0.36151177 0.1095072 0.2644924 0.06917634 0.09136944 0.113197066 0.22445256 0.07584471
00000000: 2a2c a13e e288 023e 9496 a33e 3d8d 8b3d
00000010: e00b d63d 1ac2 cf3d a6be 003e fea2 473e
00000020: 9c8f f43e b0a3 d63d abf7 833d 65e2 b53e
00000030: 7cfd 873d 5c70 ae3d ee51 5b3e abe6 ef3d
00000040: 61b8 b93d e520 893d 47ad dc3d 8c96 f53e
00000050: 7759 d13d 4060 9f3e 895e 953e ea47 353e
00000060: ecc5 6d3d 280d ab3e d37a 063e 244a c93d
00000070: c38f 093e 546e 933e 133a ab3d 1f1b a53d
00000080: 741a 653e 5d3f b03e f98c cb3e b219 0b3e
00000090: 9c5a aa3d fb1f 0a3e e4b5 b93e 2607 bd3e
000000a0: 97a9 ba3d 12ec ec3d 263a d13e 68a6 af3e
000000b0: 6214 993d 77a0 c73e 467f ad3d c539 b43e
000000c0: 1f06 b33e 78cc 953d 3f3a d73d f4af b53e
000000d0: 7b39 933e dd9a c63d 5e1b 553e 39ed d83d
000000e0: 1218 b93e 5045 e03d 8c6b 873e 53ac 8d3d
000000f0: e71f bb3d ddd3 e73d e4d6 653e 7954 9b3d

network.6.running_var f4 [64]
0.21231225 0.16215143 0.19652075 0.10266197 0.14041367 0.12943906 0.088288866 0.07081133
0.3487956 0.12825646 0.056192197 0.18470813 0.16281785 0.10922667 0.10530098 0.08142993
0.21172072 0.17329665 0.16295658 0.3216485 0.04573583 0.14136596 0.13271423 0.09064041
0.12380083 0.20442459 0.08825352 0.18609162 0.0524055 0.14462455 0.045418065 0.15491827
0.124545805 0.34751406 0.19093475 0.102042116 0.17292671 0.197019 0.16604303 0.2297012
0.16257292 0.13276213 0.20998676 0.18395793 0.15194057 0.14980751 0.2980109 0.23458776
0.22391672 0.14294288 0.12826887 0.13858947 0.1431013 0.1091226 0.08933783 0.19271293
0.24065727 0.06344363 0.22013918 0.12566751 0.07845017 0.145607 0.10961862 0.12044211
00000000: 6268 593e 060b 263e bc3c 493e 7040 d23d
00000010: 9ac8 0f3e ac8b 043e cbd0 b43d 8805 913d
00000020: 5695 b23e a955 033e ca29 663d 2124 3d3e
00000030: b9b9 263e 3bb2 df3d 0aa8 d73d bcc4 a63d
00000040: 51cd 583e ad74 313e 17de 263e 1daf a43e
00000050: 7e55 3b3d 3dc2 103e 3de6 073e aea1 b93d
00000060: 4a8b fd3d ae54 513e 43be b43d cd8e 3e3e
00000070: 26a7 563d 7518 143e 4b08 3a3d e5a2 1e3e
00000080: df11 ff3d 5ded b13e 6684 433e 75fb d03d
00000090: b313 313e 59bf 493e 2f07 2a3e cb36 6b3e
000000a0: 8479 263e ccf2 073e c506 573e 785f 3c3e
000000b0: 4f96 1b3e 2467 193e e294 983e c637 703e
000000c0: 6d4a 653e 9e5f 123e ea58 033e 66ea 0d3e
000000d0: 2689 123e ab7b df3d c1f6 b63d 8a56 453e
000000e0: dc6e 763e bcee 813d 2a6c 613e fcae 003e
000000f0: 7caa a03d 001a 153e ba7f e03d 5aaa f63d

network.8.weight f4 [1, 64]
-0.48247668 0.22501561 -0.4346825 0.2564746 0.24788207 0.20642115 0.28444275 -0.42036098
-0.4614585 0.24667287 0.27886507 -0.41322303 0.26340052 0.24602605 -0.33646163 0.24731074
0.22464274 0.24718966 0.2178851 -0.38251573 0.24358825 -0.38442764 -0.4192908 0.24020666
0.22458883 -0.50708264 0.23557785 0.19280398 0.27955797 -0.3772695 0.2447539 0.2241095
0.2492685 -0.42536113 -0.40406823 0.25437665 0.21839795 0.18959445 -0.38549957 -0.41410097
0.21316795 0.23661877 -0.38468146 -0.40706453 0.2318058 -0.43556842 0.2292304 -0.49176458
-0.41165137 0.21716793 0.2234423 -0.47441396 -0.4238428 0.25485295 -0.42049357 0.22814636
-0.5790527 0.21459328 -0.37409976 0.26203725 0.22561888 0.23980859 -0.42517033 0.2241457
00000000: 2f07 f7be 7e6a 663e b48e debe a450 833e
00000010: ccd4 7d3e 1160 533e 7ba2 913e 8e39 d7be
00000020: 4a44 ecbe d097 7c3e 67c7 8e3e f891 d3be
00000030: 6fdc 863e 41ee 7b3e b344 acbe 073f 7d3e
00000040: bf08 663e 491f 7d3e 461d 5f3e 1ad9 c3be
00000050: 336f 793e b3d3 c4be 49ad d6be bcf8 753e
00000060: 9dfa 653e 2bd0 01bf 523b 713e 686e 453e
00000070: 3922 8f3e 7829 c1be c4a0 7a3e f67c 653e
00000080: 3e40 7f3e efc8 d9be 08e2 cebe a83d 823e
00000090: b6a3 5f3e 0c25 423e 3360 c5be 0b05 d4be
000000a0: b348 5a3e 314c 723e f8f4 c4be c36a d0be
000000b0: 805e 6d3e d302 dfbe 60bb 6a3e 91c8 fbbe
000000c0: f8c3 d2be 4561 5e3e 0fce 643e 63e6 f2be
000000d0: ec01 d9be 167c 823e ef4a d7be 339f 693e
000000e0: cc3c 14bf 57be 5b3e 018a bfbe bf29 863e
000000f0: a308 673e 6290 753e edaf d9be 7386 653e
